results/ppo/BotAgent/BotAgent-0.pt (torch, 148130 bytes, 16 tensors)

discrete_act_size_vector f4 [1, 3]
1.0 1.0 1.0
00000000: 0000 803f 0000 803f 0000 803f

network_body._body_endoder.seq_layers.0.weight f4 [128, 1]
-0.18365374 0.36420906 -2.1523242 1.471264 0.7265581 0.015869582 0.2287093 -0.13707261
0.7627545 0.7110547 -0.18371172 0.3070331 -0.21282779 -1.2458014 0.33079037 0.10331849
0.38609794 0.9399092 -1.6711354 -0.87854487 -0.6548253 1.4258095 0.085024126 1.8625426
-0.49066818 0.492482 0.6921725 -0.046835113 -0.7169722 -0.9476764 0.7362192 2.333494
0.2996674 -2.1463609 0.9464895 1.6924688 -0.4039563 -0.03086422 -1.7885274 0.42804572
-1.2880218 0.1987404 0.34695297 -0.99860996 -0.43276602 1.1579255 -1.228612 0.5800261
0.76864356 -0.91789275 0.13314925 0.40692067 0.79310536 0.275796 0.15904674 -0.02060768
0.7567314 0.5149053 1.6618456 -3.025337 -0.28738448 0.034481544 0.56602883 -0.034872305
0.8172309 1.1703653 0.97955114 0.4357417 -1.6048734 -0.5455603 0.16228603 0.6511339
1.2507831 0.87903017 1.7943715 -0.3571267 -0.10768924 -1.2665482 -0.18728444 -0.16088037
0.8334967 0.27230516 0.212017 0.14960574 -0.33402058 0.86789805 0.3098377 1.8671888
1.0372471 0.32379356 0.3557415 -0.5090292 0.6840274 -1.2317345 -0.96643287 0.5595438
0.14916755 -1.0751078 0.16018568 0.8574163 1.2953843 0.34177753 0.7280364 -0.970429
0.61809963 0.037418563 -0.25397208 -0.43175846 0.6255765 0.20085816 1.6760209 -0.62024474
-0.9696794 -0.53047377 -0.47771728 -1.2892587 0.31032875 0.94231296 -0.7044006 -2.3363488
-0.2163725 -0.97117096 1.3204198 -0.60980844 -1.1811208 -2.196325 1.2036684 -0.4254934
00000000: ba0f 3cbe 9c79 ba3e aebf 09c0 6152 bc3f
00000010: b6ff 393f ed00 823c c532 6a3e c35c 0cbe
00000020: e143 433f ae07 363f ed1e 3cbe 7133 9d3e
00000030: 87ef 59be 6c76 9fbf 5b5d a93e a598 d33d
00000040: a1ae c53e e49d 703f c4e7 d5bf 51e8 60bf
00000050: a2a2 27bf ed80 b63f 2121 ae3d cc67 ee3f
00000060: dc38 fbbe 9a26 fc3e 3832 313f 2dd6 3fbd
00000070: 7d8b 37bf ec9a 72bf dd78 3c3f f757 1540
00000080: 016e 993e fa5d 09c0 234d 723f d1a2 d83f
00000090: 5cd3 cebe f6d6 fcbc 77ee e4bf cf28 db3e
000000a0: e6dd a4bf 9a82 4b3e d2a3 b13e e7a4 7fbf
000000b0: 8293 ddbe e736 943f 2843 9dbf 977c 143f
000000c0: d3c5 443f 05fb 6abf 4758 083e e857 d03e
000000d0: f408 4b3f 2235 8d3e 26dd 223e 70d1 a8bc
000000e0: 26b9 413f d5d0 033f 5bb7 d43f 1f9f 41c0
000000f0: 0f24 93be 853c 0d3d 44e7 103f 43d6 0ebd
00000100: 0b36 513f 88ce 953f ddc3 7a3f 8919 df3e
00000110: 7e6c cdbf d7a9 0bbf 4f2e 263e b6b0 263f
00000120: a919 a03f 1f08 613f f7ad e53f 50d9 b6be
00000130: 2d8c dcbd 401e a2bf 7ec7 3fbe d3bd 24be
00000140: 0a60 553f 956b 8b3e fc1a 593e 3f32 193e
00000150: bf04 abbe 912e 5e3f 0ca3 9e3e 0b00 ef3f
00000160: 83c4 843f 45c8 a53e c023 b63e bd4f 02bf
00000170: 6b1c 2f3f 7aa9 9dbf 2568 77bf 433e 0f3f
00000180: 61bf 183e 229d 89bf b707 243e a27f 5b3f
00000190: 27cf a53f 77fd ae3e 9860 3a3f 096e 78bf
000001a0: c73b 1e3f 3544 193d a108 82be 720f ddbe
000001b0: c825 203f c3ad 4d3e da87 d63f 5cc8 1ebf
000001c0: e93c 78bf 21cd 07bf 5c97 f4be 6e06 a5bf
000001d0: 69e3 9e3e 6c3b 713f 9953 34bf bd86 15c0
000001e0: c190 5dbe a99e 78bf 8403 a93f 681c 1cbf
000001f0: f72e 97bf 9790 0cc0 ce11 9a3f 45da d9be

network_body._body_endoder.seq_layers.0.bias f4 [128]
0.0 0.0 0.0 0.0 0.0 0.0 0.0 0.0
0.0 0.0 0.0 0.0 0.0 0.0 0.0 0.0
0.0 0.0 0.0 0.0 0.0 0.0 0.0 0.0
0.0 0.0 0.0 0.0 0.0 0.0 0.0 0.0
0.0 0.0 0.0 0.0 0.0 0.0 0.0 0.0
0.0 0.0 0.0 0.0 0.0 0.0 0.0 0.0
0.0 0.0 0.0 0.0 0.0 0.0 0.0 0.0
0.0 0.0 0.0 0.0 0.0 0.0 0.0 0.0
0.0 0.0 0.0 0.0 0.0 0.0 0.0 0.0
0.0 0.0 0.0 0.0 0.0 0.0 0.0 0.0
0.0 0.0 0.0 0.0 0.0 0.0 0.0 0.0
0.0 0.0 0.0 0.0 0.0 0.0 0.0 0.0
0.0 0.0 0.0 0.0 0.0 0.0 0.0 0.0
0.0 0.0 0.0 0.0 0.0 0.0 0.0 0.0
0.0 0.0 0.0 0.0 0.0 0.0 0.0 0.0
0.0 0.0 0.0 0.0 0.0 0.0 0.0 0.0
00000000: 0000 0000 0000 0000 0000 0000 0000 0000
00000010: 0000 0000 0000 0000 0000 0000 0000 0000
00000020: 0000 0000 0000 0000 0000 0000 0000 0000
00000030: 0000 0000 0000 0000 0000 0000 0000 0000
00000040: 0000 0000 0000 0000 0000 0000 0000 0000
00000050: 0000 0000 0000 0000 0000 0000 0000 0000
00000060: 0000 0000 0000 0000 0000 0000 0000 0000
00000070: 0000 0000 0000 0000 0000 0000 0000 0000
00000080: 0000 0000 0000 0000 0000 0000 0000 0000
00000090: 0000 0000 0000 0000 0000 0000 0000 0000
000000a0: 0000 0000 0000 0000 0000 0000 0000 0000
000000b0: 0000 0000 0000 0000 0000 0000 0000 0000
000000c0: 0000 0000 0000 0000 0000 0000 0000 0000
000000d0: 0000 0000 0000 0000 0000 0000 0000 0000
000000e0: 0000 0000 0000 0000 0000 0000 0000 0000
000000f0: 0000 0000 0000 0000 0000 0000 0000 0000
00000100: 0000 0000 0000 0000 0000 0000 0000 0000
00000110: 0000 0000 0000 0000 0000 0000 0000 0000
00000120: 0000 0000 0000 0000 0000 0000 0000 0000
00000130: 0000 0000 0000 0000 0000 0000 0000 0000
00000140: 0000 0000 0000 0000 0000 0000 0000 0000
00000150: 0000 0000 0000 0000 0000 0000 0000 0000
00000160: 0000 0000 0000 0000 0000 0000 0000 0000
00000170: 0000 0000 0000 0000 0000 0000 0000 0000
00000180: 0000 0000 0000 0000 0000 0000 0000 0000
00000190: 0000 0000 0000 0000 0000 0000 0000 0000
000001a0: 0000 0000 0000 0000 0000 0000 0000 0000
000001b0: 0000 0000 0000 0000 0000 0000 0000 0000
000001c0: 0000 0000 0000 0000 0000 0000 0000 0000
000001d0: 0000 0000 0000 0000 0000 0000 0000 0000
000001e0: 0000 0000 0000 0000 0000 0000 0000 0000
000001f0: 0000 0000 0000 0000 0000 0000 0000 0000

network_body._body_endoder.seq_layers.2.weight f4 [128, 128]
0.067731366 -0.04787394 0.017389612 0.0347756 0.0695794 -0.09829293 0.23058502 -0.10747281
-0.047471818 0.08931739 -0.038932234 0.08403868 0.011915076 -0.03201601 -0.08077504 0.034809705
0.08117225 0.12848015 0.1465577 -0.010693236 -0.04670956 0.023269841 0.10628625 0.01774645
-0.050436884 0.032400783 -0.015459049 -0.0398271 0.08522532 0.10131035 -0.14837319 -0.14262155
-0.14187922 0.16110195 0.006388894 -0.10531283 0.009777673 0.054447163 -0.02548552 0.15308836
-0.120263785 -0.0063762353 -0.06273882 0.27914804 -0.083770655 -0.015198568 0.03647016 0.11004327
0.030620944 -0.07837896 -0.099353775 -0.06644636 0.12603793 0.2055598 -0.053807843 0.09054217
-0.043335687 -0.01605503 0.040515922 0.071900286 -0.11074539 0.06246443 -0.07908977 -0.025254844
-0.021320658 -0.02788506 -0.07421197 -0.07744469 0.044798527 -0.028729992 0.099986054 -0.09331019
-0.018661596 0.0076908804 0.025510145 0.008593855 -0.053362045 0.0935473 -0.060152546 -0.10348815
0.034934834 -0.011079593 0.023181804 -0.056394227 0.062235795 -0.048032917 -0.026300594 -0.07884698
-0.11862303 0.10333759 0.064662896 0.11389191 0.077363834 -0.083131656 -0.10447491 0.20231529
-0.07426558 0.083371446 0.08114637 0.057870425 0.08314457 -0.03496126 -0.013484849 -0.015483606
-0.110245176 -0.09426349 0.19384322 -0.064108014 0.058066323 -0.06334362 0.022661405 0.09960215
0.078419305 0.04877935 0.026414493 -0.04280797 -0.11337928 -0.061412472 0.04700348 -0.052505035
-0.01259639 0.024696393 -0.09715896 0.14793512 -0.103941046 -0.03905811 -0.0078070043 0.049198933
-0.03883255 -0.06516737 -0.05814086 0.0061583286 -0.11914685 -0.012499929 0.08461772 0.09670893
-0.12377425 0.06413694 0.100122176 0.0024095303 -0.09433748 -0.05331752 -0.091451444 0.14384946
-0.26685524 -0.022529485 -0.0308537 -0.110728174 0.1752568 -0.17707936 -0.10799758 0.051436007
0.0156043405 -0.057777565 0.05323693 -0.04202999 -0.06386166 0.05568184 0.16030934 0.098656505
-0.07232311 -0.103329375 0.073153734 0.038717523 0.08740569 0.057273537 0.0126883 0.110394016
0.09616043 0.057101488 -0.00780021 0.016178386 0.24095842 -0.15580373 -0.11595811 -0.06189459
0.029654048 -0.030248722 0.14758806 0.010603271 -0.1081971 -0.0277138 -0.009723339 -0.28887564
-0.0915056 -0.09484549 0.0011924807 -0.044158265 -0.07207487 0.11026428 0.15155622 0.08917858
0.025642803 -0.0003591358 0.04917119 0.036676306 -0.046858877 -0.072661646 -0.011611096 0.21975
0.09587599 0.11102668 0.021998288 0.07659121 -0.104304895 0.0442016 0.20142432 -0.013494748
0.061166625 0.010035689 -0.04620777 -0.0987514 0.09320758 -0.007620227 -0.21717368 -0.006319061
-0.10229674 0.09800456 0.009412342 -0.0007789601 0.0009095979 0.05236296 -0.018024128 -0.12000404
-0.0141578615 -0.03658041 -0.12640242 0.056350745 -0.0788671 -0.14336188 0.08404203 -0.010239826
0.059979025 -0.0041569774 0.047578137 -0.052116077 0.04051746 0.0072722635 0.028879026 0.092785284
0.012264054 -0.041187555 0.015735524 -0.0569181 -0.061931774 0.030305687 -0.1500836 -0.056249358
0.03027552 -0.036803257 0.0059482967 0.067996904 0.0466058 0.06353574 0.038165435 0.08860731
00000000: beb6 8a3d 7717 44bd a974 8e3c dc70 0e3d
00000010: a57f 8e3d ce4d c9bd 7b1e 6c3e b41a dcbd
00000020: cf71 42bd 09ec b63d 6877 1fbd 791c ac3d
00000030: 7337 433c 3823 03bd 626d a5bd 9f94 0e3d
00000040: a33d a63d 4d90 033e 3913 163e af32 2fbc
00000050: 8652 3fbd 65a0 be3c 9bac d93d 0161 913c
00000060: e896 4ebd afb6 043d f347 7dbc be21 23bd
00000070: 9d8a ae3d cd7b cf3d 24ef 17be 620b 12be
00000080: c948 11be e9f7 243e ed59 d13b 41ae d7bd
00000090: 8832 203c fd03 5f3d 02c7 d0bc 32c3 1c3e
000000a0: dc4c f6bd bdef d0bb 367d 80bd 7eec 8e3e
000000b0: f38f abbd 6a03 79bc bc61 153d 5e5e e13d
000000c0: c6d8 fa3c 2685 a0bd fe79 cbbd 0715 88bd
000000d0: 1610 013e 457e 523e 9d65 5cbd 2c6e b93d
000000e0: c380 31bd d785 83bc 06f4 253d 7540 933d
000000f0: 7bce e2bd b4da 7f3d d1f9 a1bd 3fe3 cebc
00000100: a9a8 aebc 366f e4bc 72fc 97bd 529b 9ebd
00000110: a97e 373d 295b ebbc 7dc5 cc3d 6a19 bfbd
00000120: 34e0 98bc c803 fc3b a7fa d03c 3ecd 0c3c
00000130: 2992 5abd ba95 bf3d 8462 76bd 98f1 d3bd
00000140: d417 0f3d 2e87 35bc c4e7 bd3c a2fd 66bd
00000150: f6ea 7e3d 2abe 44bd 5874 d7bc 877a a1bd
00000160: a2f0 f2bd a9a2 d33d fb6d 843d 2940 e93d
00000170: ee70 9e3d ee40 aabd f1f6 d5bd bd2b 4f3e
00000180: 8d18 98bd a6be aa3d 1130 a63d 8a09 6d3d
00000190: b347 aa3d 8a33 0fbd 8eef 5cbc f3ae 7dbc
000001a0: 39c8 e1bd 370d c1bd d67e 463e 104b 83bd
000001b0: f4d6 6d3d 4dba 81bd 69a4 b93c 36fc cb3d
000001c0: 4d9a a03d dbcc 473d 3563 d83c 6957 2fbd
000001d0: 6533 e8bd a58b 7bbd b986 403d 850f 57bd
000001e0: 1761 4ebc 1750 ca3c 47fb c6bd 4e7c 173e
000001f0: 0bdf d4bd 66fb 1fbd e6d1 ffbb d284 493d
00000200: e10e 1fbd 7876 85bd 1c25 6ebd cecb c93b
00000210: 4403 f4bd 81cc 4cbc 0e4c ad3d 550f c63d
00000220: 5b7d fdbd 3a5a 833d db0c cd3d 36e9 1d3b
00000230: 0234 c1bd 7963 5abd e54a bbbd 464d 133e
00000240: 40a1 88be c18f b8bc e6c0 fcbc 74c5 e2bd
00000250: 8576 333e 4b54 35be d62d ddbd 90ae 523d
00000260: 59a9 7f3c 2ba8 6cbd f80e 5a3d a427 2cbd
00000270: e7c9 82bd a412 643d 2228 243e 6c0c ca3d
00000280: 241e 94bd 5a9e d3bd a0d1 953d 4496 1e3d
00000290: c101 b33d a897 6a3d 96e2 4f3c 4216 e23d
000002a0: c2ef c43d 40e3 693d e798 ffbb 8988 843c
000002b0: cebd 763e 038b 1fbe 727b edbd 2e85 7dbd
000002c0: 0ced f23c 2bcc f7bc 5321 173e 58b9 2d3c
000002d0: 7196 ddbd 0d08 e3bc a44e 1fbc 82e7 93be
000002e0: 4a67 bbbd 5a3e c2bd 034d 9c3a 4cdf 34bd
000002f0: fd9b 93bd 3dd2 e13d 8e31 1b3e 42a3 b63d
00000300: db10 d23c 644a bcb9 bb67 493d e539 163d
00000310: 18ef 3fbd a1cf 94bd 773c 3ebc 2506 613e
00000320: a25a c43d f561 e33d c135 b43c dadb 9c3d
00000330: ce9d d5bd bd0c 353d 2d42 4e3e 1319 5dbc
00000340: db89 7a3d bb6c 243c 5c44 3dbd 2d3e cabd
00000350: 9ee3 be3d 19b3 f9bb c762 5ebe 2010 cfbb
00000360: f480 d1bd 9db6 c83d 3936 1a3c 2133 4cba
00000370: 1572 6e3a 8b7a 563d 56a7 93bc aec4 f5bd
00000380: 60f6 67bc 57d5 15bd a36f 01be 0ad0 663d
00000390: 1385 a1bd 75cd 12be 3a1e ac3d f1c4 27bc
000003a0: 91ac 753d 4137 88bb 4be1 423d ab77 55bd
000003b0: a3f5 253d 2b4c ee3b b593 ec3c 3606 be3d
000003c0: 2cef 483c 48b4 28bd c9e7 803c f422 69bd
000003d0: 2cac 7dbd a243 f83c 84af 19be ba65 66bd
000003e0: 5e04 f83c 03bf 16bd eee9 c23b f641 8b3d
000003f0: b9e5 3e3d 071f 823d 5c53 1c3d c077 b53d

network_body._body_endoder.seq_layers.2.bias f4 [128]
0.0 0.0 0.0 0.0 0.0 0.0 0.0 0.0
0.0 0.0 0.0 0.0 0.0 0.0 0.0 0.0
0.0 0.0 0.0 0.0 0.0 0.0 0.0 0.0
0.0 0.0 0.0 0.0 0.0 0.0 0.0 0.0
0.0 0.0 0.0 0.0 0.0 0.0 0.0 0.0
0.0 0.0 0.0 0.0 0.0 0.0 0.0 0.0
0.0 0.0 0.0 0.0 0.0 0.0 0.0 0.0
0.0 0.0 0.0 0.0 0.0 0.0 0.0 0.0
0.0 0.0 0.0 0.0 0.0 0.0 0.0 0.0
0.0 0.0 0.0 0.0 0.0 0.0 0.0 0.0
0.0 0.0 0.0 0.0 0.0 0.0 0.0 0.0
0.0 0.0 0.0 0.0 0.0 0.0 0.0 0.0
0.0 0.0 0.0 0.0 0.0 0.0 0.0 0.0
0.0 0.0 0.0 0.0 0.0 0.0 0.0 0.0
0.0 0.0 0.0 0.0 0.0 0.0 0.0 0.0
0.0 0.0 0.0 0.0 0.0 0.0 0.0 0.0
00000000: 0000 0000 0000 0000 0000 0000 0000 0000
00000010: 0000 0000 0000 0000 0000 0000 0000 0000
00000020: 0000 0000 0000 0000 0000 0000 0000 0000
00000030: 0000 0000 0000 0000 0000 0000 0000 0000
00000040: 0000 0000 0000 0000 0000 0000 0000 0000
00000050: 0000 0000 0000 0000 0000 0000 0000 0000
00000060: 0000 0000 0000 0000 0000 0000 0000 0000
00000070: 0000 0000 0000 0000 0000 0000 0000 0000
00000080: 0000 0000 0000 0000 0000 0000 0000 0000
00000090: 0000 0000 0000 0000 0000 0000 0000 0000
000000a0: 0000 0000 0000 0000 0000 0000 0000 0000
000000b0: 0000 0000 0000 0000 0000 0000 0000 0000
000000c0: 0000 0000 0000 0000 0000 0000 0000 0000
000000d0: 0000 0000 0000 0000 0000 0000 0000 0000
000000e0: 0000 0000 0000 0000 0000 0000 0000 0000
000000f0: 0000 0000 0000 0000 0000 0000 0000 0000
00000100: 0000 0000 0000 0000 0000 0000 0000 0000
00000110: 0000 0000 0000 0000 0000 0000 0000 0000
00000120: 0000 0000 0000 0000 0000 0000 0000 0000
00000130: 0000 0000 0000 0000 0000 0000 0000 0000
00000140: 0000 0000 0000 0000 0000 0000 0000 0000
00000150: 0000 0000 0000 0000 0000 0000 0000 0000
00000160: 0000 0000 0000 0000 0000 0000 0000 0000
00000170: 0000 0000 0000 0000 0000 0000 0000 0000
00000180: 0000 0000 0000 0000 0000 0000 0000 0000
00000190: 0000 0000 0000 0000 0000 0000 0000 0000
000001a0: 0000 0000 0000 0000 0000 0000 0000 0000
000001b0: 0000 0000 0000 0000 0000 0000 0000 0000
000001c0: 0000 0000 0000 0000 0000 0000 0000 0000
000001d0: 0000 0000 0000 0000 0000 0000 0000 0000
000001e0: 0000 0000 0000 0000 0000 0000 0000 0000
000001f0: 0000 0000 0000 0000 0000 0000 0000 0000

action_model._continuous_distribution.log_sigma f4 [1, 2]
0.0 0.0
00000000: 0000 0000 0000 0000

action_model._continuous_distribution.mu.weight f4 [2, 128]
-0.014215504 0.0055114753 -0.00032702603 -0.02976252 0.007282462 0.009582987 -0.008683028 0.024305452
-0.04113591 0.0049025463 0.0016196184 -0.019427072 0.007597424 -0.037341956 -0.0021348621 0.015804116
0.021876795 -0.012549728 0.028828358 0.014749669 -0.010050368 -0.009988421 -0.02326985 0.01113235
0.00026327063 0.006038462 0.01137381 0.011677033 0.0023057524 0.0012558697 0.005536318 -0.00014116442
-0.014294215 0.040617254 -0.005233887 -0.0006150564 -0.0074018673 -0.02206431 0.015755827 -0.0045310324
0.0023071459 0.016096996 0.009482515 0.003463852 -0.023650464 -0.013469966 -0.011199779 -0.004669603
-0.038298868 0.024085457 0.01160315 0.008767318 0.012356321 0.002180621 -0.008256078 -0.007256416
-0.014858185 0.00039693256 0.012608528 0.029544119 0.012300151 0.004135314 -0.0145663535 -0.0039246655
0.041913986 0.010108071 0.009602311 -0.0062666885 -0.007251696 -0.0053302995 0.01296515 -0.028403858
-0.0027383638 0.04356762 -0.0033880752 -0.005513971 0.008345547 -0.0046691704 -0.006577124 0.015204506
-0.008230028 -0.0142163485 -0.0056330073 -0.012974026 0.0036729523 -0.006409531 0.019403314 0.031457424
-0.0012890354 0.013192779 -0.028854141 -0.009543854 -0.016308438 -0.0173479 0.0030506137 -0.017604772
-0.03889596 -0.012234956 -0.011375909 -0.010384479 0.018366603 -0.017862828 0.01629695 0.023019372
0.0052057444 0.0056660254 0.01816531 -0.0073294374 0.0059420103 -0.008518756 -0.004982682 -0.03204503
-0.008515795 -0.0023623349 -0.013311021 -0.01764726 -0.018139381 -0.03787787 0.0058154953 0.01412264
0.040573288 -0.02557734 -0.023687972 -0.034623783 -0.029364804 -0.008453269 0.00782261 -0.020011563
-0.009958389 -0.0067204544 -0.003736969 -0.004048159 -0.011652558 -0.026416173 -0.023012886 -0.00021155014
0.0072145583 -0.01895049 0.012122177 0.0077201105 0.004213369 0.005202727 -8.079399e-05 -0.0033332985
-0.0026966005 0.003774859 -0.015882917 -0.036061574 -0.013004066 0.001961455 0.012907273 0.009816099
-0.0075877155 -0.0017099449 -0.0134490905 -0.004058545 -0.004781721 -0.012308266 -0.024042232 -0.011879819
-0.0053721145 -0.015725086 -0.005587514 -0.036462832 -0.008567681 0.0038437478 -0.015393324 -0.014243542
-0.013301483 0.006839958 0.010574194 0.024220854 -0.028588414 0.0076937485 -0.017045267 -0.007510031
2.9988383e-05 0.041832365 -0.0159898 -0.0032810767 -0.002207844 -0.013439255 0.035795096 -0.011213964
0.022556163 0.0035200473 0.049540993 -0.009391266 0.0022126269 -0.0024205327 0.026772294 0.022398686
-0.0021832858 0.002787317 -0.0038004385 -0.019105157 -0.020805413 0.012730526 0.0146866245 0.02421794
0.007304448 -0.0067795287 0.027926339 0.023512324 -0.0019229954 0.009606242 0.0023977964 -0.012651538
-0.01845849 -0.027291581 -0.007832407 -0.008356498 0.04489852 0.008214824 -0.00054039207 0.028720105
0.005819825 -0.024624996 0.0063249394 -0.010119494 -0.011203776 -0.013828382 -0.0016496069 -0.016385417
0.0105443625 0.0056421515 0.031107051 -0.009653036 -0.0028317634 0.015305208 0.0022658517 -0.018084908
0.01994577 -0.017212862 -0.029925207 0.0027846089 -0.051324267 -0.009146863 0.004161158 -0.0019427956
0.0045670653 0.029139418 0.019764546 0.016875118 0.01972387 -0.011471954 0.0100885015 0.011903014
-0.0039444603 0.0026918135 -0.045846865 0.013546117 0.0236227 -0.006432154 -0.0169108 -0.014618925
00000000: 25e8 68bc 9b99 b43b b174 abb9 87d0 f3bc
00000010: b8a1 ee3b f601 1d3c 4243 0ebc 3a1c c73c
00000020: 217e 28bd 8aa5 a03b 6049 d43a 8625 9fbc
00000030: d0f3 f83b e1f3 18bd 0be9 0bbb a277 813c
00000040: f736 b33c 609d 4dbc 7329 ec3c 98a8 713c
00000050: 4caa 24bc 79a6 23bc 6aa0 bebc 7664 363c
00000060: 9607 8a39 4ade c53b 3759 3a3c 0751 3f3c
00000070: 1b1c 173b ff9b a43a 006a b53b 8905 14b9
00000080: 4832 6abc 475e 263d 0781 abbb bc3b 21ba
00000090: 5d8b f2bb 36c0 b4bc 5d12 813c 0e79 94bb
000000a0: 7c33 173b d9dd 833c 8d5c 1b3c cb01 633b
000000b0: 9ebe c1bc 22b1 5cbc 477f 37bc 7803 99bb
000000c0: 46df 1cbd dd4e c53c 231b 3e3c cca4 0f3c
000000d0: 2b72 4a3c c0e8 0e3b 8044 07bc 3bc7 edbb
000000e0: bf6f 73bc 631b d039 0094 4e3c 8206 f23c
000000f0: 9386 493c 8781 873b b7a7 6ebc 7b9a 80bb
00000100: 00ae 2b3d 539c 253c 0353 1d3c cb58 cdbb
00000110: a39f edbb cba9 aebb c86b 543c 35af e8bc
00000120: 1f76 33bb f673 323d 780a 5ebb 8bae b4bb
00000130: c3bb 083c d7ff 98bb ea84 d7bb 521c 793c
00000140: 3dd7 06bc b0eb 68bc 1795 b8bb 0291 54bc
00000150: eab5 703b 0b07 d2bb b3f3 9e3c 80d9 003d
00000160: daf4 a8ba 8726 583c 855f ecbc d35d 1cbc
00000170: 4699 85bc 2f1d 8ebc ceec 473b e237 90bc
00000180: 5f51 1fbd 2075 48bc 0562 3abc a923 2abc
00000190: 8f75 963c 1155 92bc 2e81 853c 1f93 bc3c
000001a0: f394 aa3b 11aa b93b 6bcf 943c c72b f0bb
000001b0: 32b5 c23b 4192 0bbc c445 a3bb a641 03bd
000001c0: d585 0bbc 67d1 1abb 7816 5abc fd90 90bc
000001d0: 0a99 94bc d325 1bbd e98f be3b a562 673c
000001e0: 2d30 263d 9287 d1bc 470d c2bc abd1 0dbd
000001f0: 758e f0bc 947f 0abc 682a 003c 4aef a3bc
00000200: 8328 23bc 4237 dcbb f0e7 74bb 6ba6 84bb
00000210: 5fea 3ebc bb66 d8bc 8585 bcbc 8fd3 5db9
00000220: 1a68 ec3b 0f3e 9bbc 189c 463c fbf8 fc3b
00000230: 4d10 8a3b a37b aa3b f16f a9b8 7873 5abb
00000240: 73b9 30bb a063 773b e41c 82bc 4db5 13bd
00000250: 020f 55bc c18b 003b 0779 533c b4d3 203c
00000260: 5fa2 f8bb 3b20 e0ba 9359 5cbc 8bfd 84bb
00000270: fcaf 9cbb 9ca8 49bc 37f4 c4bc 93a3 42bc
00000280: 9008 b0bb e5d1 80bc 7717 b7bb 0d5a 15bd
00000290: 755f 0cbc 63e7 7b3b 4834 7cbc bf5d 69bc
000002a0: 77ee 59bc ba21 e03b 623f 2d3c d06a c63c
000002b0: 4032 eabc d71b fc3b 84a2 8bbc b516 f6bb
000002c0: 908f fb37 6a58 2b3d 0bfd 82bc 5507 57bb
000002d0: 7ab1 10bb 5230 5cbc e19d 123d c6ba 37bc
000002e0: b4c7 b83c 98b0 663b 7feb 4a3d d3dd 19bc
000002f0: b801 113b cda1 1ebb 9251 db3c 737d b73c
00000300: 7515 0fbb 6bab 363b c710 79bb 6b82 9cbc
00000310: 1d70 aabc b293 503c 2ba0 703c b464 c63c
00000320: 275a ef3b cf26 debb c7c5 e43c eb9c c03c
00000330: 050d fcba 8063 1d3c 5924 1d3b 6548 4fbc
00000340: 4236 97bc 9892 dfbc 7f53 00bc b1e9 08bc
00000350: 83e7 373d 7897 063c 19a9 0dba 6d46 eb3c
00000360: 3bb4 be3b 5cba c9bc 7041 cf3b 3ccc 25bc
00000370: 0b90 37bc 7090 62bc 9f37 d8ba b63a 86bc
00000380: 43c2 2c3c cce1 b83b 37d4 fe3c c427 1ebc
00000390: 1b95 39bb b2c2 7a3c af7e 143b cd26 94bc
000003a0: 5065 a33c fd01 8dbc b525 f5bc fc7d 363b
000003b0: 6539 52bd b9dc 15bc 535a 883b 67a5 feba
000003c0: 52a7 953b cab5 ee3c 42e9 a13c b03d 8a3c
000003d0: f493 a13c ddf4 3bbc 3e4a 253c dc04 433c
000003e0: 8840 81bb 2369 303b ecc9 3bbd 88f0 5d3c
000003f0: 6484 c13c d2c4 d2bb 8588 8abc 3784 6fbc

action_model._continuous_distribution.mu.bias f4 [2]
0.0 0.0
00000000: 0000 0000 0000 0000

action_model._discrete_distribution.branches.0.weight f4 [1, 128]
0.0004513804 0.008915305 0.012141689 0.007827137 0.010180666 0.008309553 0.008022412 -0.0010019615
-0.008927683 0.012331419 -0.0002004581 0.0035802207 -0.012775689 -0.0009547795 -0.002275179 -0.000375096
-0.006973531 -0.026439354 -0.013116439 0.01779299 -0.006928913 0.0015891361 -0.007366118 -0.0017191852
0.009295159 0.002612927 0.005377501 0.0027089813 -0.0061813975 0.0046083755 -0.009658585 0.0007539152
0.00036112044 0.014522785 -0.003319125 -0.021758972 -0.006242873 0.008031865 -0.0057964087 0.008180912
0.010723621 -0.012441744 0.005773661 -0.00551022 0.0029784653 -0.0066441256 -0.006305656 -0.0041474085
0.013326729 0.0014987708 -0.011617406 -0.009380999 0.0009255167 -0.012297283 0.006161574 0.007349182
0.012313287 0.0010258099 -0.01975063 0.007871857 -0.011377337 0.010753561 -0.0018025152 0.011654228
-0.01620261 -0.0016855773 -0.0043224283 -0.014506756 -0.0020652204 -0.0045040958 0.0037696601 -0.014789668
-0.0012240587 0.007912912 -0.018826362 0.004591535 -0.0051037194 -0.0007865736 0.0042602993 -0.0055943574
0.0015762482 0.0037233045 -0.028713366 0.0018152355 2.650055e-05 -0.0019921267 -0.006852346 -0.012318576
-0.0054166387 -0.019386372 -0.0042207045 0.0039702985 -0.008536911 0.0058636903 0.0053337873 0.005034189
-0.005738964 -5.355576e-05 -0.0036032803 0.0017864052 0.013193684 -0.0033402217 -0.0009145968 -0.012418923
-0.003555204 0.013103807 0.009287704 0.0026792123 0.002682979 0.00089833717 -0.0037435498 -0.01604867
-0.003127122 -0.01247541 -0.009231188 -0.0028909545 -0.003464941 -0.0141020315 -0.0108510675 0.0052060834
-0.0054675257 -0.017996926 -0.0011709504 0.0014706883 0.00024916598 0.006332252 0.0060699848 0.00017070796
00000000: 40a7 ec39 8011 123c efed 463c 643d 003c
00000010: cfcc 263c cb24 083c 6f70 033c 4054 83ba
00000020: 6b45 12bc b809 4a3c 1032 52b9 23a2 6a3b
00000030: 2051 51bc 2b4a 7aba 2b1b 15bb 88a8 c4b9
00000040: 3882 e4bb 5897 d8bc 55e6 56bc 9bc2 913c
00000050: ef0b e3bb 8f4a d03a 7a5f f1bb 4856 e1ba
00000060: b94a 183c a43d 2b3b bf35 b03b 2a89 313b
00000070: 528d cabb db01 973b 0b3f 1ebc 65a2 453a
00000080: c454 bd39 faf0 6d3c ad85 59bb df3f b2bc
00000090: 0491 ccbb 1598 033c cdef bdbb 3b09 063c
000000a0: 20b2 2f3c 75d8 4bbc fb30 bd3b 138f b4bb
000000b0: 5b32 433b f7b6 d9bb ad9f cebb fce6 87bb
000000c0: 5a58 5a3c 6772 c43a ef56 3ebc c3b2 19bc
000000d0: 609e 723a 8b7a 49bc 07e7 c93b 68d1 f03b
000000e0: abbd 493c 7874 863a 13cc a1bc f6f8 003c
000000f0: 0368 3abc b42f 303c 6042 ecba 60f1 3e3c
00000100: 56bb 84bc 97ee dcba 28a3 8dbb bfad 6dbc
00000110: a658 07bb 1897 93bb 670c 773b 5d50 72bc
00000120: 9870 a0ba 29a5 013c be39 9abc 9674 963b
00000130: 1a3d a7bb 1032 4eba fb99 8b3b df50 b7bb
00000140: 1d9a ce3a af02 743b 4b38 ebbc 32ed ed3a
00000150: 7f4d de37 578e 02bb a589 e0bb dad3 49bc
00000160: 0f7e b1bb 2bd0 9ebc d64d 8abb 4719 823b
00000170: 66de 0bbc 3324 c03b 0dc7 ae3b d7f5 a43b
00000180: eb0d bcbb 0fa1 60b8 0325 6cbb d025 ea3a
00000190: 522a 583c 9fe7 5abb 8dc1 6fba bd78 4bbc
000001a0: 6dfe 68bb 5ab1 563c 742b 183c b995 2f3b
000001b0: ebd4 2f3b 637e 6b3a 5856 75bb 8078 83bc
000001c0: 67f0 4cbb a965 4cbc 693e 17bc 2b76 3dbb
000001d0: 1014 63bb 350c 67bc adc8 31bc cb97 aa3b
000001e0: ee28 b3bb 4a6e 93bc 937a 99ba 1cc4 c03a
000001f0: 7ea2 8239 c87e cf3b b9e6 c63b 1200 3339

action_model._discrete_distribution.branches.1.weight f4 [1, 128]
0.017354472 -0.008722158 0.01838152 0.00075500295 -0.0047079953 0.018595383 -0.0052160528 -0.0011216698
-0.007022234 0.001254062 -0.005150152 -0.0066782497 -0.0015811039 0.0077682384 0.004143858 0.0074596726
0.0028033818 0.0022996995 0.009779092 0.022900613 -0.012639764 0.0018014926 0.0070693134 -0.008647779
0.009448942 0.02203451 -0.017377635 -0.003749425 0.0023514028 0.0055242325 0.006025381 -0.0014737541
-0.01066263 0.008437696 0.0011080118 0.007199933 -0.010535833 -0.004536575 -0.008067756 -0.0066578262
0.0039596437 0.005736006 0.015919283 0.009077157 -0.009752665 -0.0035564725 -0.007534717 -0.00086743146
-0.0026973803 -0.00795125 -0.0026042208 -0.007875859 -0.0023456053 0.005626347 0.00042310628 0.015072711
-0.00034661783 0.015379848 -0.0013826735 -0.010946553 0.015088095 0.012718218 0.008527423 0.0043726144
0.018613568 0.0065252236 -0.01653717 0.012218399 0.0005167708 0.019980114 -0.004225057 -0.003073611
0.008008662 0.0052849376 -0.008285982 -0.0069295093 -0.02083981 -0.010949163 0.0048576356 -0.004094896
-0.0056542912 0.018697307 -0.002296915 0.011102351 0.0031691564 0.015773112 0.0031726502 0.0109034395
-0.0016635888 -0.003003836 -6.9637535e-05 0.0036065367 -0.004387795 -0.001026961 0.0063472926 -0.01053984
0.0028848615 0.0008266363 -0.00038411087 0.00212837 0.0017818544 -0.0017249767 -0.011236505 -0.00021255788
-0.016996494 -0.014067449 0.0016122535 -0.0036570732 0.015155022 0.0015503694 0.00025371314 -0.00563416
-0.0054990393 0.011332146 -0.0054180934 0.004187793 -0.0037895811 -0.0045305444 -0.008659656 0.0018317096
0.0025670861 0.003687501 -0.0002540083 0.0052768677 -0.006527412 0.0027835765 0.006361329 0.0024318355
00000000: f72a 8e3c 62e7 0ebc d794 963c 64eb 453a
00000010: 8745 9abb 5855 983c 6ceb aabb fe04 93ba
00000020: c51a e6bb 575f a43a 9bc2 a8bb 38d5 dabb
00000030: 0b3d cfba b58c fe3b 33c9 873b 4570 f43b
00000040: f1b8 373b 8eb6 163b 7c38 203c 119a bb3c
00000050: 0317 4fbc 1020 ec3a b3a5 e73b 6aaf 0dbc
00000060: bccf 1a3c b781 b43c 8b5b 8ebc eab8 75bb
00000070: fe19 1a3b 9f04 b53b 8f70 c53b fb2a c1ba
00000080: 50b2 2ebc 433e 0a3c b53a 913a 6aed eb3b
00000090: 7d9e 2cbc 8da7 94bb 9f2e 04bc e529 dabb
000000a0: e6bf 813b 1bf5 bb3b 2869 823c 5bb8 143c
000000b0: a4c9 1fbc b513 69bb cae5 f6bb 5764 63ba
000000c0: 88c6 30bb f645 02bc 93ab 2abb bf09 01bc
000000d0: bab8 19bb 385d b83b 5dd4 dd39 88f3 763c
000000e0: 42ba b5b9 c2fb 7b3c d33a b5ba 2c59 33bc
000000f0: 0f34 773c 1360 503c 9bb6 0b3c 2648 8f3b
00000100: 7b7b 983c 8bd1 d53b f678 87bc ae2f 483c
00000110: e777 073a 56ad a33c 5972 8abb a36e 49bb
00000120: c336 033c 452d ad3b edc1 07bc f010 e3bb
00000130: 40b8 aabc 1e64 33bc cd2c 9f3b 7a2e 86bb
00000140: a247 b9bb 182b 993c d787 16bb a3e6 353c
00000150: 9fb1 4f3b 9d36 813c 3dec 4f3b 57a4 323c
00000160: c70c daba 01dc 44bb 5e0a 92b8 a55b 6c3b
00000170: 7ec7 8fbb 189b 86ba f3fc cf3b 4baf 2cbc
00000180: f20f 3d3b 9fb2 583a 7d62 c9b9 207c 0b3b
00000190: 1d8d e93a 9d18 e2ba 5119 38bc 12e2 5eb9
000001a0: 3b3c 8bbc 287b 66bc 4052 d33a 82ab 6fbb
000001b0: c54c 783c c435 cb3a cd04 8539 c29e b8bb
000001c0: 4931 b4bb 77aa 393c 438a b1bb c139 893b
000001d0: 9f5a 78bb f674 94bb 3be1 0dbc fa15 f03a
000001e0: 8f3c 283b 00aa 713b 6b2c 85b9 93e9 ac3b
000001f0: e7e3 d5bb aa6c 363b b272 d03b 6e5f 1f3b

action_model._discrete_distribution.branches.2.weight f4 [1, 128]
0.012307967 0.0137195885 0.01669595 0.0042919493 0.009491349 -0.0075851255 -0.0011884546 -0.0055817426
-0.009151525 0.020837827 -0.0060493583 -0.020769909 0.02777778 -0.012952863 0.007567098 0.009372588
-0.008820339 -0.0010478869 -0.002634708 4.0938652e-05 0.00532732 0.0018035959 0.006238629 0.00047864384
-0.008208749 0.0008048156 0.008800499 0.008191257 -0.0047777584 -0.01809594 0.0073489286 0.0040579075
-0.0033249818 0.0003259908 0.00419286 0.013943485 0.0033385144 -0.0060965265 -0.007403783 0.00020841628
0.0075707138 0.010067904 0.010339736 -0.00094460027 -0.00073768105 -0.018293818 0.0018108372 -0.00022878217
-0.010850128 0.006962117 0.010382886 0.008468494 0.00642033 -0.0062392936 0.009467268 -0.0042144856
0.0067007244 0.003975728 0.0103971055 0.0023715221 -0.004607627 -0.018826526 -0.018232612 -0.0016213696
-0.0003822808 0.0013848379 0.0038277307 -0.014340525 -0.012948021 -0.015622258 0.009376839 -0.0028935876
0.0065511847 0.002573254 0.0073715746 -0.0017603453 -0.0030654431 0.008515436 -0.0013102242 0.013447507
0.00919449 0.00947583 0.029028988 0.0033829026 0.014882863 0.0026306421 0.006533861 0.0121059595
0.012003093 0.002564627 -0.002149102 -0.0040907967 0.011388259 0.0075024883 0.009230393 0.0030628594
-0.011193372 -0.014891364 0.006103573 0.013822573 0.0014703263 -0.0028990249 -0.013515337 -0.007582418
0.011562833 0.0025946856 0.009782509 0.0002508518 -0.02490557 -0.0028434845 0.016102357 0.011436762
0.026283657 0.0062052514 -0.007830956 -0.004303719 -0.00573486 -0.006952698 0.0022960647 -0.011717258
0.002082275 0.011197685 0.0012742785 -0.009764628 0.00441648 -0.0015203794 0.014769982 0.012719284
00000000: 5ba7 493c 20c8 603c f2c5 883c 7ba3 8c3b
00000010: 9a81 1b3c a58c f8bb ebc5 9bba 0de7 b6bb
00000020: 47f0 15bc 17b4 aa3c b239 c6bb a825 aabc
00000030: 3a8e e33c 3f38 54bc 6bf5 f73b 7c8f 193c
00000040: 2f83 10bc 4059 89ba 11ab 2cbb 8bb5 2b38
00000050: cd90 ae3b a366 ec3a 6a6d cc3b 7df2 fa39
00000060: fd7d 06bc 43fa 523a f82f 103c 9f34 063c
00000070: be8e 9cbb f03d 94bc 48cf f03b 32f8 843b
00000080: f0e7 59bb bfe9 aa39 4264 893b 3773 643c
00000090: faca 5a3b 5fc5 c7bb 6f9b f2bb 528a 5a39
000000a0: c013 f83b daf3 243c ff67 293c 0d9f 77ba
000000b0: f060 41ba ebdc 95bc 9d59 ed3a 3fe5 6fb9
000000c0: bcc4 31bc 7822 e43b fb1c 2a3c 70bf 0a3c
000000d0: a261 d23b fd72 ccbb 9a1c 1b3c ab19 8abb
000000e0: c091 db3b d346 823b 9f58 2a3c 8a6b 1b3b
000000f0: 94fb 96bb 163a 9abc 8f5c 95bc 2384 d4ba
00000100: dc6c c8b9 7383 b53a aada 7a3b 85f4 6abc
00000110: f023 54bc 80f4 7fbc 50a1 193c 58a2 3dbb
00000120: 52ab d63b 0aa4 283b 408d f13b 63bb e6ba
00000130: 9ae5 48bb 5484 0b3c d4bb abba ef52 5c3c
00000140: 7ca4 163c 8340 1b3c 33ce ed3c b0b3 5d3b
00000150: 40d7 733c da66 2c3b 001a d63b 1358 463c
00000160: 9fa8 443c 4d13 283b f3d7 0cbb 170c 86bb
00000170: d295 3a3c 6fd7 f53b 133b 173c 41ba 483b
00000180: 6864 37bc e8fa 73bc 7b00 c83b 1378 623c
00000190: f7b7 c03a 91fd 3dbb 6f6f 5dbc ef75 f8bb
000001a0: 0972 3d3c 9a0b 2a3b d146 203c c284 8339
000001b0: c406 ccbc c159 3abb 17e9 833c 4261 3b3c
000001c0: d350 d73c 6c55 cb3b 694d 00bc 3606 8dbb
000001d0: 7eeb bbbb 75d3 e3bb 9379 163b bef9 3fbc
000001e0: c776 083b 7f76 373c b105 a73a d1fb 1fbc
000001f0: 1fb8 903b 7847 c7ba cbfd 713c 8b64 503c

network_body._body_endoder.seq_layers.0.weight f4 [128, 1]
-0.6853847 -1.4526821 0.4312004 0.9682494 -0.026261874 -0.08394351 0.8687491 -0.400257
-1.3108904 0.79149944 -0.99583125 0.3352781 -0.30748203 -0.20355296 1.199469 -0.20876853
-0.6729479 -1.1795772 0.079041235 0.32223225 0.25393313 0.4698308 0.89125896 -0.5654157
0.13389769 0.20916662 0.46562985 -1.7576121 -1.063642 1.5894678 -0.49549484 1.3806477
1.1788127 0.63166475 -0.9814658 -0.93355125 -1.812241 0.2658841 0.39251715 1.1400231
-0.9259282 -1.6056272 0.3633319 -0.8077659 -1.3433537 -0.31720248 1.5034759 0.555747
0.6870627 -0.5015745 -0.3866799 -1.3426982 -0.5434472 0.7723929 0.4504914 -1.5627813
-1.0083388 0.975969 -1.1021111 1.018635 0.6539856 0.0022172343 0.6030843 1.2843994
-1.4206785 2.4610715 0.3102824 0.18805924 -0.82413155 -0.26177981 -2.2625537 -0.8778011
-1.3523959 1.1858351 0.22700742 0.22994687 -0.74505323 -0.9216803 -0.33741567 0.4261841
-0.5456192 0.9292655 -1.6503829 -0.4414634 -0.04228827 0.059919454 -0.58637685 -1.103863
0.58811593 3.0097282 -0.82972604 -1.2814277 0.6656333 -0.3584225 0.72634256 -0.42628342
1.1239659 -0.7448431 -1.4475002 -0.19043878 -0.28831285 -0.017870795 -1.9077718 0.96498716
-2.4575026 0.34610772 1.691998 0.4479214 1.0950751 -1.2857816 1.3173125 0.8875381
-1.6122588 0.46850348 2.4833052 -0.61301744 -0.008774092 -2.5663292 -0.9077675 2.0380685
-2.31651 -0.31374446 -0.6092792 0.5048333 1.4999497 0.19645411 0.8749746 0.7958868
00000000: 5f75 2fbf 7df1 b9bf 4dc6 dc3e 31df 773f
00000010: 2423 d7bc 93ea abbd 5766 5e3f 7cee ccbe
00000020: 42cb a7bf b59f 4a3f ccee 7ebf 92a9 ab3e
00000030: 496e 9dbe 3070 50be 3388 993f 6bc7 55be
00000040: 5046 2cbf 63fc 96bf 5fe0 a13d a0fb a43e
00000050: 8603 823e aa8d f03e 8c29 643f 15bf 10bf
00000060: 7a1c 093e c62f 563e 0967 ee3e 6ff9 e0bf
00000070: 6c25 88bf ae73 cb3f 80b1 fdbe 10b9 b03f
00000080: 56e3 963f c8b4 213f 5841 7bbf 37fd 6ebf
00000090: 83f7 e7bf f621 883e 02f8 c83e 47ec 913f
000000a0: a109 6dbf 3185 cdbf a406 ba3e bfc9 4ebf
000000b0: 04f3 abbf 5d68 a2be e671 c03f 6f45 0e3f
000000c0: 57e3 2f3f 3067 00bf e8fa c5be 89dd abbf
000000d0: 5b1f 0bbf 8bbb 453f cfa6 e63e 3809 c8bf
000000e0: 3f11 81bf 1bd9 793f fa11 8dbf a262 823f
000000f0: 9a6b 273f 054f 113b bc63 1a3f 3367 a43f
00000100: cbd8 b5bf 3282 1d40 56dd 9e3e 9a92 403e
00000110: 49fa 52bf 0108 86be aecd 10c0 93b7 60bf
00000120: 4f1b adbf 72c9 973f a274 683e 3177 6b3e
00000130: cfbb 3ebf 3df3 6bbf bfc1 acbe cd34 da3e
00000140: b3ad 0bbf 58e4 6d3f bf3f d3bf 7e07 e2be
00000150: 7736 2dbd 1a6e 753d cb1c 16bf 624b 8dbf
00000160: c48e 163f 639f 4040 ed68 54bf d305 a4bf
00000170: f266 2a3f 2783 b7be 96f1 393f d241 dabe
00000180: 1dde 8f3f 0aae 3ebf b047 b9bf 6202 43be
00000190: be9d 93be c665 92bc de31 f4bf 6609 773f
000001a0: b947 1dc0 0835 b13e 6493 d83f f455 e53e
000001b0: 6c2b 8c3f 7e94 a4bf b29d a83f b235 633f
000001c0: 7f5e cebf b0df ef3e 79ee 1e40 b6ee 1cbf
000001d0: 36c1 0fbc bd3e 24c0 7363 68bf b76f 0240
000001e0: b341 14c0 1da3 a0be b9f9 1bbf c13c 013f
000001f0: 5afe bf3f 442b 493e 56fe 5f3f 3dbf 4b3f

network_body._body_endoder.seq_layers.0.bias f4 [128]
0.0 0.0 0.0 0.0 0.0 0.0 0.0 0.0
0.0 0.0 0.0 0.0 0.0 0.0 0.0 0.0
0.0 0.0 0.0 0.0 0.0 0.0 0.0 0.0
0.0 0.0 0.0 0.0 0.0 0.0 0.0 0.0
0.0 0.0 0.0 0.0 0.0 0.0 0.0 0.0
0.0 0.0 0.0 0.0 0.0 0.0 0.0 0.0
0.0 0.0 0.0 0.0 0.0 0.0 0.0 0.0
0.0 0.0 0.0 0.0 0.0 0.0 0.0 0.0
0.0 0.0 0.0 0.0 0.0 0.0 0.0 0.0
0.0 0.0 0.0 0.0 0.0 0.0 0.0 0.0
0.0 0.0 0.0 0.0 0.0 0.0 0.0 0.0
0.0 0.0 0.0 0.0 0.0 0.0 0.0 0.0
0.0 0.0 0.0 0.0 0.0 0.0 0.0 0.0
0.0 0.0 0.0 0.0 0.0 0.0 0.0 0.0
0.0 0.0 0.0 0.0 0.0 0.0 0.0 0.0
0.0 0.0 0.0 0.0 0.0 0.0 0.0 0.0
00000000: 0000 0000 0000 0000 0000 0000 0000 0000
00000010: 0000 0000 0000 0000 0000 0000 0000 0000
00000020: 0000 0000 0000 0000 0000 0000 0000 0000
00000030: 0000 0000 0000 0000 0000 0000 0000 0000
00000040: 0000 0000 0000 0000 0000 0000 0000 0000
00000050: 0000 0000 0000 0000 0000 0000 0000 0000
00000060: 0000 0000 0000 0000 0000 0000 0000 0000
00000070: 0000 0000 0000 0000 0000 0000 0000 0000
00000080: 0000 0000 0000 0000 0000 0000 0000 0000
00000090: 0000 0000 0000 0000 0000 0000 0000 0000
000000a0: 0000 0000 0000 0000 0000 0000 0000 0000
000000b0: 0000 0000 0000 0000 0000 0000 0000 0000
000000c0: 0000 0000 0000 0000 0000 0000 0000 0000
000000d0: 0000 0000 0000 0000 0000 0000 0000 0000
000000e0: 0000 0000 0000 0000 0000 0000 0000 0000
000000f0: 0000 0000 0000 0000 0000 0000 0000 0000
00000100: 0000 0000 0000 0000 0000 0000 0000 0000
00000110: 0000 0000 0000 0000 0000 0000 0000 0000
00000120: 0000 0000 0000 0000 0000 0000 0000 0000
00000130: 0000 0000 0000 0000 0000 0000 0000 0000
00000140: 0000 0000 0000 0000 0000 0000 0000 0000
00000150: 0000 0000 0000 0000 0000 0000 0000 0000
00000160: 0000 0000 0000 0000 0000 0000 0000 0000
00000170: 0000 0000 0000 0000 0000 0000 0000 0000
00000180: 0000 0000 0000 0000 0000 0000 0000 0000
00000190: 0000 0000 0000 0000 0000 0000 0000 0000
000001a0: 0000 0000 0000 0000 0000 0000 0000 0000
000001b0: 0000 0000 0000 0000 0000 0000 0000 0000
000001c0: 0000 0000 0000 0000 0000 0000 0000 0000
000001d0: 0000 0000 0000 0000 0000 0000 0000 0000
000001e0: 0000 0000 0000 0000 0000 0000 0000 0000
000001f0: 0000 0000 0000 0000 0000 0000 0000 0000

network_body._body_endoder.seq_layers.2.weight f4 [128, 128]
0.06245976 0.02376724 0.025470736 0.0887272 -0.03454715 0.0033073202 -0.068979494 -0.0936723
-0.18976142 0.080942966 -0.15329309 0.03411894 0.12414291 -0.05210246 0.021842273 -0.09274509
0.093783006 0.084708564 -0.06425362 -0.02266621 0.11624963 0.0614129 0.106099956 0.027829524
0.16680862 0.008400567 0.014390585 -0.12220136 -0.17192808 0.06875602 -0.014873249 0.017098192
0.047739666 -0.09622805 -0.05705126 0.0007454555 0.16941883 0.07184675 -0.013041101 0.011038283
-0.12719555 0.07830316 0.053390495 -0.121130526 0.03629298 -0.012411712 -0.080206856 0.05376146
-0.17259164 0.096171886 0.08335715 -0.085538596 -0.12984686 0.03528766 -0.029672321 0.081765085
0.116108105 0.14626868 0.09306579 0.014676712 -0.018119752 -0.08512244 0.039760895 -0.033271357
0.050930686 0.0358604 -0.018029148 0.0380646 0.029611174 0.0080445055 0.18117158 0.13346913
-0.031240407 0.0799539 -0.10685879 0.09516775 -0.042845834 -0.019478548 -0.02145242 -0.03795092
0.113951914 0.17602423 -0.10173911 -0.0198744 -0.017515402 -0.1831822 -0.06853966 0.06837987
0.17389068 0.0607471 -0.07754744 -0.0011604078 -0.1375655 -0.0337972 -0.0041679526 -0.14456005
0.18316719 0.041578196 -0.0043896334 -0.121643655 0.043156706 0.11225116 -0.1837314 -0.13797213
0.11368052 0.14214112 0.099565595 -0.08338914 0.04248018 0.0010745458 0.051731426 0.06889024
0.0086659705 -0.082957074 0.020552332 -0.12377948 -0.032310702 0.06697691 -0.15277082 0.12038558
0.048498884 0.105729625 -0.119621016 0.052756857 0.07495456 0.013463846 0.15876547 0.09138106
-0.009412227 -0.011580052 -0.005350168 0.011517598 0.18892154 0.044442892 0.12064771 -0.050410464
-0.013066917 -0.0735952 0.122056745 -0.21814595 0.07107292 -0.08122527 0.0031221476 -0.037888773
-0.050250202 0.06993704 0.065617666 0.110589996 0.1309456 0.025825357 -0.010449877 0.10481885
-0.012526906 -0.0961466 0.09975714 -0.103171386 0.115618005 -0.0826397 -0.18137123 0.086006254
0.021312412 0.003085676 0.09075758 0.061317846 -0.054333113 -0.09756315 0.067173965 0.043977898
0.000409477 0.043773238 0.008815549 0.076988764 -0.18113838 -0.15245432 -0.0040253643 0.1369455
0.1556728 -0.011532713 0.02694849 0.04559848 -0.049394082 -0.08347183 0.07801186 0.079287395
0.094196305 0.14608377 0.1420159 0.058301825 0.020770665 -0.012007838 -0.027900869 -0.028906666
0.0079187695 0.04035439 -0.038978882 0.06559365 -0.08144643 -0.06298771 -0.0036253722 0.0013269521
0.20380424 0.018768193 -0.2545497 -0.18040524 0.04794073 0.021916337 0.00090486516 0.00054889184
-0.0210746 -0.08371114 -0.009395458 0.0030527168 -0.023263074 0.07015572 -0.04552493 0.0014239366
0.10633728 -0.003053282 0.10894238 0.0370412 -0.16830073 -0.099912144 0.05354038 -0.040417254
-0.036140934 0.21528639 -0.1302537 -0.09868966 0.0976287 -0.14627884 -0.0017007142 -0.016843423
-0.01926584 0.16348566 0.015256213 -0.1499529 0.08647845 -0.03242822 0.12550548 0.024184043
0.21866973 0.01079924 0.13682215 -3.3495628e-05 0.074965194 0.045952145 -0.011222221 0.04338583
0.10087321 0.044350106 0.017491613 -0.023470083 -0.009698744 -0.019583616 -0.14087406 0.0075153685
00000000: ced5 7f3d 84b3 c23c 01a8 d03c 9bb6 b53d
00000010: 5081 0dbd a0bf 583b 1f45 8dbd 43d7 bfbd
00000020: d150 42be 6dc5 a53d ddf8 1cbe 4dc0 0b3d
00000030: a33e fe3d 6469 55bd 91ee b23c 23f1 bdbd
00000040: 4e11 c03d af7b ad3d 6797 83bd 7dae b9bc
00000050: 4914 ee3d 188c 7b3d ef4a d93d befa e33c
00000060: e1cf 2a3e 88a2 093c 7dc6 6b3c b544 fabd
00000070: ea0d 30be f5cf 8c3d eeae 73bc 8211 8c3c
00000080: ab8a 433d 3613 c5bd 95ae 69bd ac6a 433a
00000090: 217c 2d3e 6424 933d 58aa 55bc ead9 343c
000000a0: 8d3f 02be 685d a03d feaf 5a3d 4813 f8bd
000000b0: f3a7 143d 7e5a 4bbc 7e43 a4bd fa34 5c3d
000000c0: ddbb 30be c4f5 c43d 27b7 aa3d dc2e afbd
000000d0: 93f6 04be cb89 103d 5e13 f3bc 7474 a73d
000000e0: 16ca ed3d 75c7 153e 4799 be3d 9876 703c
000000f0: e06f 94bc ac54 aebd 52dc 223d 8c47 08bd
00000100: b29c 503d 5be2 123d ddb1 93bc a0e9 1b3d
00000110: 2293 f23c 1acd 033c 0b85 393e 22ac 083e
00000120: e2eb ffbc dfbe a33d c8d8 dabd 4fe7 c23d
00000130: 1d7f 2fbd 7a91 9fbc fcbc afbc 6d72 1bbd
00000140: 9f5f e93d b23f 343e 985c d0bd a3cf a2bc
00000150: 767c 8fbc 1d94 3bbe 855e 8cbd bf0a 8c3d
00000160: 6610 323e f3d1 783d 31d1 9ebd d318 98ba
00000170: f8dd 0cbe ef6e 0abd 5293 88bb 8d07 14be
00000180: 2e90 3b3e e64d 2a3d ead6 8fbb 4f20 f9bd
00000190: 16c5 303d f0e3 e53d 1624 3cbe 9148 0dbe
000001a0: 55d1 e83d 718d 113e 0ce9 cb3d edc7 aabd
000001b0: b2ff 2d3d c6d7 8c3a 55e4 533d 5316 8d3d
000001c0: b7fb 0d3c 66e5 a9bd 5d5d a83c 1980 fdbd
000001d0: 3a58 04bd 312b 893d f46f 1cbe b78c f63d
000001e0: c4a6 463d c688 d83d ddfb f4bd 9317 583d
000001f0: c781 993d 7797 5c3c 6a93 223e fe25 bb3d
00000200: be35 1abc 42ba 3dbc 7650 afbb 4fb4 3c3c
00000210: a674 413e c009 363d 2616 f73d 347b 4ebd
00000220: 9f16 56bc 15b9 96bd e3f8 f93d a761 5fbe
00000230: ae8e 913d 6f59 a6bd f29c 4c3b 4231 1bbd
00000240: 28d3 4dbd 273b 8f3d 8e62 863d 027d e23d
00000250: 9a16 063e b38f d33c f635 2bbc 44ab d63d
00000260: a73d 4dbc 82e8 c4bd 794d cc3d 854b d3bd
00000270: 22c9 ec3d 013f a9bd 61b9 39be 0c24 b03d
00000280: 5e97 ae3c 0e39 4a3b 1cdf b93d 6c28 7b3d
00000290: 668c 5ebd 30cf c7bd 8192 893d 2b22 343d
000002a0: 13af d639 914b 333d 186f 103c 49ac 9d3d
000002b0: 577c 39be fc1c 1cbe 34e7 83bb 713b 0c3e
000002c0: b168 1f3e b4f3 3cbc 14c3 dc3c 79c5 3a3d
000002d0: 7351 4abd 47f3 aabd afc4 9f3d 6e61 a23d
000002e0: fee9 c03d fc96 153e 9e6c 113e e5cd 6e3d
000002f0: 3e27 aa3c 86bc 44bc 5d90 e4bc accd ecbc
00000300: babd 013c a54a 253d 52a8 1fbd f755 863d
00000310: 63cd a6bd b3ff 80bd a797 6dbb 20ed ad3a
00000320: 0fb2 503e c1bf 993c 5754 82be 27bc 38be
00000330: 805d 443d e489 b33c 7934 6d3a 82e3 0f3a
00000340: a4a4 acbc bf70 abbd 68ef 19bc 1710 483b
00000350: 3492 bebc cdad 8f3d 5978 3abd 62a3 ba3a
00000360: 5cc7 d93d 9219 48bb 2f1d df3d 83b8 173d
00000370: 0757 2cbe bd9e ccbd 284d 5b3d 908c 25bd
00000380: 8408 14bd 0974 5c3e 3a61 05be ce1d cabd
00000390: 8ef1 c73d 1fca 15be 80ea deba 38fb 89bc
000003a0: 65d3 9dbc c968 273e 32f5 793c 418d 19be
000003b0: 9d1b b13d 74d3 04bd 8284 003e 9d1d c63c
000003c0: f5ea 5f3e 4cef 303c 1b1b 0c3e a87d 0cb8
000003d0: 5a87 993d 5138 3c3d 68dd 37bc 57b5 313d
000003e0: 9d96 ce3d 75a8 353d 924a 8f3c 5544 c0bc
000003f0: 7be7 1ebc d26d a0bc 4a41 10be 7b43 f63b

network_body._body_endoder.seq_layers.2.bias f4 [128]
0.0 0.0 0.0 0.0 0.0 0.0 0.0 0.0
0.0 0.0 0.0 0.0 0.0 0.0 0.0 0.0
0.0 0.0 0.0 0.0 0.0 0.0 0.0 0.0
0.0 0.0 0.0 0.0 0.0 0.0 0.0 0.0
0.0 0.0 0.0 0.0 0.0 0.0 0.0 0.0
0.0 0.0 0.0 0.0 0.0 0.0 0.0 0.0
0.0 0.0 0.0 0.0 0.0 0.0 0.0 0.0
0.0 0.0 0.0 0.0 0.0 0.0 0.0 0.0
0.0 0.0 0.0 0.0 0.0 0.0 0.0 0.0
0.0 0.0 0.0 0.0 0.0 0.0 0.0 0.0
0.0 0.0 0.0 0.0 0.0 0.0 0.0 0.0
0.0 0.0 0.0 0.0 0.0 0.0 0.0 0.0
0.0 0.0 0.0 0.0 0.0 0.0 0.0 0.0
0.0 0.0 0.0 0.0 0.0 0.0 0.0 0.0
0.0 0.0 0.0 0.0 0.0 0.0 0.0 0.0
0.0 0.0 0.0 0.0 0.0 0.0 0.0 0.0
00000000: 0000 0000 0000 0000 0000 0000 0000 0000
00000010: 0000 0000 0000 0000 0000 0000 0000 0000
00000020: 0000 0000 0000 0000 0000 0000 0000 0000
00000030: 0000 0000 0000 0000 0000 0000 0000 0000
00000040: 0000 0000 0000 0000 0000 0000 0000 0000
00000050: 0000 0000 0000 0000 0000 0000 0000 0000
00000060: 0000 0000 0000 0000 0000 0000 0000 0000
00000070: 0000 0000 0000 0000 0000 0000 0000 0000
00000080: 0000 0000 0000 0000 0000 0000 0000 0000
00000090: 0000 0000 0000 0000 0000 0000 0000 0000
000000a0: 0000 0000 0000 0000 0000 0000 0000 0000
000000b0: 0000 0000 0000 0000 0000 0000 0000 0000
000000c0: 0000 0000 0000 0000 0000 0000 0000 0000
000000d0: 0000 0000 0000 0000 0000 0000 0000 0000
000000e0: 0000 0000 0000 0000 0000 0000 0000 0000
000000f0: 0000 0000 0000 0000 0000 0000 0000 0000
00000100: 0000 0000 0000 0000 0000 0000 0000 0000
00000110: 0000 0000 0000 0000 0000 0000 0000 0000
00000120: 0000 0000 0000 0000 0000 0000 0000 0000
00000130: 0000 0000 0000 0000 0000 0000 0000 0000
00000140: 0000 0000 0000 0000 0000 0000 0000 0000
00000150: 0000 0000 0000 0000 0000 0000 0000 0000
00000160: 0000 0000 0000 0000 0000 0000 0000 0000
00000170: 0000 0000 0000 0000 0000 0000 0000 0000
00000180: 0000 0000 0000 0000 0000 0000 0000 0000
00000190: 0000 0000 0000 0000 0000 0000 0000 0000
000001a0: 0000 0000 0000 0000 0000 0000 0000 0000
000001b0: 0000 0000 0000 0000 0000 0000 0000 0000
000001c0: 0000 0000 0000 0000 0000 0000 0000 0000
000001d0: 0000 0000 0000 0000 0000 0000 0000 0000
000001e0: 0000 0000 0000 0000 0000 0000 0000 0000
000001f0: 0000 0000 0000 0000 0000 0000 0000 0000

value_heads.value_heads.extrinsic.weight f4 [1, 128]
0.049176395 -0.05123815 -0.008157834 0.09122187 -0.17306104 0.09555727 0.006817296 0.13525999
0.10564312 0.06182486 -0.054567933 0.058144838 0.045316428 0.06316826 0.07162827 0.20277578
-0.05477169 -0.0042300075 -0.046157718 -0.1895881 -0.015339091 0.028681666 0.13367349 -0.19504525
-0.20951016 -0.14111727 0.19726637 0.04762718 0.12707776 0.15380561 0.13313687 -0.19147201
0.12260741 -0.19754846 -0.068577066 -0.11205589 -0.10584552 0.04515806 0.14619741 -0.030358866
-0.09283096 0.076554 0.07888806 0.032457054 0.17641148 0.11233106 0.112389416 -0.039273605
-0.12536965 -0.05594653 0.21541518 -0.038549304 0.21250558 -0.09192911 0.116482824 -0.16242225
0.092777014 0.17817464 -0.115389414 0.06783795 -0.12605613 0.20029205 0.09823573 0.12829915
0.06749746 -0.026113302 -0.16193672 -0.059728682 -0.06871857 -0.19131187 -0.18643774 0.12428987
-0.023292512 -0.16530101 -0.08449684 0.03025812 -0.10519178 0.034782767 -0.059319288 -0.19350909
0.112066895 0.20325705 0.052594423 -0.1618732 -0.0032183677 -0.14065018 0.03234504 -0.06859352
-0.19062668 0.18816414 -0.18294087 0.027491584 0.066842735 -0.041030273 -0.030007765 -0.18201914
0.03636071 0.04043287 -0.1835748 0.0018983036 0.024846941 0.017411217 -0.10342663 0.16438037
-0.14965332 -0.09151151 -0.18951239 0.030782044 0.12646794 0.19296798 0.07500818 -0.14473012
0.0898101 0.031554356 -0.1684965 -0.19472663 -0.16898182 0.10437602 -0.003364116 0.20086357
-0.19783168 -0.023123473 0.10231057 0.06553632 -0.07841833 0.18043315 -0.14227405 0.124358594
00000000: 306d 493d 18df 51bd 70a8 05bc 88d2 ba3d
00000010: ea36 31be 88b3 c33d a063 df3b 9881 0a3e
00000020: 6c5b d83d 103c 7d3d a082 5fbd 4829 6e3d
00000030: b89d 393d 5c5e 813d d8b1 923d 74a4 4f3e
00000040: 4858 60bd e09b 8abb e00f 3dbd 6223 42be
00000050: d050 7bbc d0f5 ea3c b4e1 083e f1b9 47be
00000060: d589 56be 0c81 10be 3200 4a3e b814 433d
00000070: ac20 023e 387f 1d3e 0855 083e 3d11 44be
00000080: 9819 fb3d 254a 4abe 2272 8cbd 8f7d e5bd
00000090: 89c5 d8bd a8f7 383d c6b4 153e 28b3 f8bc
000000a0: 291e bebd 58c8 9c3d 1090 a13d b0f1 043d
000000b0: 36a5 343e d40d e63d 6c2c e63d 5cdd 20bd
000000c0: e760 00be 3028 65bd cc95 5c3e e0e5 1dbd
000000d0: 109b 593e 5445 bcbd 8c8e ee3d 0552 26be
000000e0: e001 be3d 6a73 363e 4951 ecbd a0ee 8a3d
000000f0: dc14 01be 5c19 4d3e d02f c93d da60 033e
00000100: 1c3c 8a3d 90eb d5bc bdd2 25be 10a6 74bd
00000110: 52bc 8cbd 42e7 43be 89e9 3ebe b08b fe3d
00000120: f0cf bebc ab44 29be ae0c adbd e0df f73c
00000130: ca6e d7bd 6078 0e3d c8f8 72bd 3f27 46be
00000140: 5483 e53d 9e22 503e 406d 573d 17c2 25be
00000150: 40eb 52bb 9a06 10be 3c7c 043d c27a 8cbd
00000160: a433 43be 1aae 403e da54 3bbe 0836 e13c
00000170: d8e4 883d 5c0f 28bd d8d2 f5bc 3a63 3abe
00000180: f8ee 143d f09c 253d 08fb 3bbe 80d0 f83a
00000190: d08b cb3c f8a1 8e3c 57d1 d3bd 5453 283e
000001a0: b83e 19be 636a bbbd 890f 42be a02a fc3c
000001b0: d080 013e 6699 453e e49d 993d 2234 14be
000001c0: 5cee b73d 243f 013d 598a 2cbe 6b66 47be
000001d0: 9209 2dbe 18c3 d53d 8078 5cbb 2eaf 4d3e
000001e0: 6394 4abe 706d bdbc 3488 d13d e837 863d
000001f0: ca99 a0bd 78c3 383e 4ab0 11be b8af fe3d
